…
rained model if available (resume training) or start training from scratch if no pretrained model is available"],"metadata":{"id":"-iPBoV69LrOE","colab":{"base_uri":"https://localhost:8080/"},"executionInfo":{"status":"ok","timestamp":1719600445902,"user_tz":300,"elapsed":7154,"user":{"displayName":"Samuel “Kingdom” Fanijo","userId":"17327784851875615909"}},"outputId":"3b81a41d-e820-4e97-abc3-c5bf1ad42c86"},"execution_count":9,"outputs":[{"output_type":"stream","name":"stdout","text":["[06/28 18:47:21 d2.engine.defaults]: Model:\n","GeneralizedRCNN(\n","  (backbone): FPN(\n","    (fpn_lateral2): Conv2d(256, 256, kernel_size=(1, 1), stride=(1, 1))\n","    (fpn_output2): Conv2d(256, 256, kernel_size=(3, 3), stride=(1, 1), padding=(1, 1))\n","    (fpn_lateral3): Conv2d(512, 256, kernel_size=(1, 1), stride=(1, 1))\n","    (fpn_output3): Conv2d(256, 256, kernel_size=(3, 3), stride=(1, 1), padding=(1, 1))\n","    (fpn_lateral4): Conv2d(1024, 256, kernel_size=(1, 1), stride=(1, 1))\n","    (fpn_output4): Conv2d(256, 256, kernel_size=(3, 3), stride=(1, 1), padding=(1, 1))\n","    (fpn_lateral5): Conv2d(2048, 256, kernel_size=(1, 1), stride=(1, 1))\n","    (fpn_output5): Conv2d(256, 256, kernel_size=(3, 3), stride=(1, 1), padding=(1, 1))\n","    (top_block): LastLevelMaxPool()\n","    (bottom_up): ResNet(\n","      (stem): BasicStem(\n","        (conv1): Conv2d(\n","          3, 64, kernel_size=(7, 7), stride=(2, 2), padding=(3, 3), bias=False\n","          (norm): FrozenBatchNorm2d(num_features=64, eps=1e-05)\n","        )\n","      )\n","      (res2): Sequential(\n","        (0): BottleneckBlock(\n","          (shortcut): Conv2d(\n","            64, 256, kernel_size=(1, 1), stride=(1, 1), bias=False\n","            (norm): FrozenBatchNorm2d(num_features=256, eps=1e-05)\n","          )\n","          (conv1): Conv2d(\n","            64, 64, kernel_size=(1, 1), stride=(1, 1), bias=False\n","            (norm): FrozenBatchNorm2d(num_features=64, eps=1e-05)\n","          )\n","          (conv2): Conv2d(\n","            64, 64, kernel_size=(3, 3), stride=(1, 1), padding=(1, 1), bias=False\n","            (norm): FrozenBatchNorm2d(num_features=64, eps=1e-05)\n","          )\n","          (conv3): Conv2d(\n","            64, 256, kernel_size=(1, 1), stride=(1, 1), bias=False\n","            (norm): FrozenBatchNorm2d(num_features=256, eps=1e-05)\n","          )\n","        )\n","        (1): BottleneckBlock(\n","          (conv1): Conv2d(\n","            256, 64, kernel_size=(1, 1), stride=(1, 1), bias=False\n","            (norm): FrozenBatchNorm2d(num_features=64, eps=1e-05)\n","          )\n","          (conv2): Conv2d(\n","            64, 64, kernel_size=(3, 3), stride=(1, 1), padding=(1, 1), bias=False\n","            (norm): FrozenBatchNorm2d(num_features=64, eps=1e-05)\n","          )\n","          (conv3): Conv2d(\n","            64, 256, kernel_size=(1, 1), stride=(1, 1), bias=False\n","            (norm): FrozenBatchNorm2d(num_features=256, eps=1e-05)\n","          )\n","        )\n","        (2): BottleneckBlock(\n","          (conv1): Conv2d(\n","            256, 64, kernel_size=(1, 1), stride=(1, 1), bias=False\n","            (norm): FrozenBatchNorm2d(num_features=64, eps=1e-05)\n","          )\n","          (conv2): Conv2d(\n","            64, 64, kernel_size=(3, 3), stride=(1, 1), padding=(1, 1), bias=False\n","            (norm): FrozenBatchNorm2d(num_features=64, eps=1e-05)\n","          )\n","          (conv3): Conv2d(\n","            64, 256, kernel_size=(1, 1), stride=(1, 1), bias=False\n","            (norm): FrozenBatchNorm2d(num_features=256, eps=1e-05)\n","          )\n","        )\n","      )\n","      (res3): Sequential(\n","        (0): BottleneckBlock(\n","          (shortcut): Conv2d(\n","            256, 512, kernel_size=(1, 1), stride=(2, 2), bias=False\n","            (norm): FrozenBatchNorm2d(num_features=512, eps=1e-05)\n","          )\n","          (conv1): Conv2d(\n","            256, 128, kernel_size=(1, 1), stride=(2, 2), bias=False\n","            (norm): FrozenBatchNorm2d(num_features=128, eps=1e-05)\n","          )\n","          (conv2): Conv2d(\n","            128, 128, kernel_size=(3, 3), stride=(1, 1), padding=(1, 1), bias=False\n","            (norm): FrozenBatchNorm2d(num_features=128, eps=1e-05)\n","          )\n","          (conv3): Conv2d(\n","            128, 512, kernel_size=(1, 1), stride=(1, 1), bias=False\n","            (norm): FrozenBatchNorm2d(num_features=512, eps=1e-05)\n","          )\n","        )\n","        (1): BottleneckBlock(\n","          (conv1): Conv2d(\n","            512, 128, kernel_size=(1, 1), stride=(1, 1), bias=False\n","            (norm): FrozenBatchNorm2d(num_features=128, eps=1e-05)\n","          )\n","          (conv2): Conv2d(\n","            128, 128, kernel_size=(3, 3), stride=(1, 1), padding=(1, 1), bias=False\n","            (norm): FrozenBatchNorm2d(num_features=128, eps=1e-05)\n","          )\n","          (conv3): Conv2d(\n","            128, 512, kernel_size=(1, 1), stride=(1, 1), bias=False\n","            (norm): FrozenBatchNorm2d(num_features=512, eps=1e-05)\n","          )\n","        )\n","        (2): BottleneckBlock(\n","          (conv1): Conv2d(\n","            512, 128, kernel_size=(1, 1), stride=(1, 1), bias=False\n","            (norm): FrozenBatchNorm2d(num_features=128, eps=1e-05)\n","          )\n","          (conv2): Conv2d(\n","            128, 128, kernel_size=(3, 3), stride=(1, 1), padding=(1, 1), bias=False\n","            (norm): FrozenBatchNorm2d(num_features=128, eps=1e-05)\n","          )\n","          (conv3): Conv2d(\n","            128, 512, kernel_size=(1, 1), stride=(1, 1), bias=False\n","            (norm): FrozenBatchNorm2d(num_features=512, eps=1e-05)\n","          )\n","        )\n","        (3): BottleneckBlock(\n","          (conv1): Conv2d(\n","            512, 128, kernel_size=(1, 1), stride=(1, 1), bias=False\n","            (norm): FrozenBatchNorm2d(num_features=128, eps=1e-05)\n","          )\n","          (conv2): Conv2d(\n","            128, 128, kernel_size=(3, 3), stride=(1, 1), padding=(1, 1), bias=False\n","            (norm): FrozenBatchNorm2d(num_features=128, eps=1e-05)\n","          )\n","          (conv3): Conv2d(\n","            128, 512, kernel_size=(1, 1), stride=(1, 1), bias=False\n","            (norm): FrozenBatchNorm2d(num_features=512, eps=1e-05)\n","          )\n","        )\n","      )\n","      (res4): Sequential(\n","        (0): BottleneckBlock(\n","          (shortcut): Conv2d(\n","            512, 1024, kernel_size=(1, 1), stride=(2, 2), bias=False\n","            (norm): FrozenBatchNorm2d(num_features=1024, eps=1e-05)\n","          )\n","          (conv1): Conv2d(\n","            512, 256, kernel_size=(1, 1), stride=(2, 2), bias=False\n","            (norm): FrozenBatchNorm2d(num_features=256, eps=1e-05)\n","          )\n","          (conv2): Conv2d(\n","            256, 256, kernel_size=(3, 3), stride=(1, 1), padding=(1, 1), bias=False\n","            (norm): FrozenBatchNorm2d(num_features=256, eps=1e-05)\n","          )\n","          (conv3): Conv2d(\n","            256, 1024, kernel_size=(1, 1), stride=(1, 1), bias=False\n","            (norm): FrozenBatchNorm2d(num_features=1024, eps=1e-05)\n","          )\n","        )\n","        (1): BottleneckBlock(\n","          (conv1): Conv2d(\n","            1024, 256, kernel_size=(1, 1), stride=(1, 1), bias=False\n","            (norm): FrozenBatchNorm2d(num_features=256, eps=1e-05)\n","          )\n","          (conv2): Conv2d(\n","            256, 256, kernel_size=(3, 3), stride=(1, 1), padding=(1, 1), bias=False\n","            (norm): FrozenBatchNorm2d(num_features=256, eps=1e-05)\n","          )\n","          (conv3): Conv2d(\n","            256, 1024, kernel_size=(1, 1), stride=(1, 1), bias=False\n","            (norm): FrozenBatchNorm2d(num_features=1024, eps=1e-05)\n","          )\n","        )\n","        (2): BottleneckBlock(\n","          (conv1): Conv2d(\n","            1024, 256, kernel_size=(1, 1), stride=(1, 1), bias=False\n","            (norm): FrozenBatchNorm2d(num_features=256, eps=1e-05)\n","          )\n","          (conv2): Conv2d(\n","            256, 256, kernel_size=(3, 3), stride=(1, 1), padding=(1, 1), bias=False\n","            (norm): FrozenBatchNorm2d(num_features=256, eps=1e-05)\n","          )\n","          (conv3): Conv2d(\n","            256, 1024, kernel_size=(1, 1), stride=(1, 1), bias=False\n","            (norm): FrozenBatchNorm2d(num_features=1024, eps=1e-05)\n","          )\n","        )\n","        (3): BottleneckBlock(\n","          (conv1): Conv2d(\n","            1024, 256, kernel_size=(1, 1), stride=(1, 1), bias=False\n","            (norm): FrozenBatchNorm2d(num_features=256, eps=1e-05)\n","          )\n","          (conv2): Conv2d(\n","            256, 256, kernel_size=(3, 3), stride=(1, 1), padding=(1, 1), bias=False\n","            (norm): FrozenBatchNorm2d(num_features=256, eps=1e-05)\n","          )\n","          (conv3): Conv2d(\n","            256, 1024, kernel_size=(1, 1), stride=(1, 1), bias=False\n","            (norm): FrozenBatchNorm2d(num_features=1024, eps=1e-05)\n","          )\n","        )\n","        (4): BottleneckBlock(\n","          (conv1): Conv2d(\n","            1024, 256, kernel_size=(1, 1), stride=(1, 1), bias=False\n","            (norm): FrozenBatchNorm2d(num_features=256, eps=1e-05)\n","          )\n","          (conv2): Conv2d(\n","            256, 256, kernel_size=(3, 3), stride=(1, 1), padding=(1, 1), bias=False\n","            (norm): FrozenBatchNorm2d(num_features=256, eps=1e-05)\n","          )\n","          (conv3): Conv2d(\n","            256, 1024, kernel_size=(1, 1), stride=(1, 1), bias=False\n","            (norm): FrozenBatchNorm2d(num_features=1024, eps=1e-05)\n","          )\n","        )\n","        (5): BottleneckBlock(\n","          (conv1): Conv2d(\n","            1024, 256, kernel_size=(1, 1), stride=(1, 1), bias=False\n","            (norm): FrozenBatchNorm2d(num_features=256, eps=1e-05)\n","          )\n","          (conv2): Conv2d(\n","            256, 256, kernel_size=(3, 3), stride=(1, 1), padding=(1, 1), bias=False\n","            (norm): FrozenBatchNorm2d(num_features=256, eps=1e-05)\n","          )\n","          (conv3): Conv2d(\n","            256, 1024, kernel_size=(1, 1), stride=(1, 1), bias=False\n","            (norm): FrozenBatchNorm2d(num_features=1024, eps=1e-05)\n","          )\n","        )\n","      )\n","      (res5): Sequential(\n","        (0): BottleneckBlock(\n","          (shortcut): Conv2d(\n","            1024, 2048, kernel_size=(1, 1), stride=(2, 2), bias=False\n","            (norm): FrozenBatchNorm2d(num_features=2048, eps=1e-05)\n","          )\n","          (conv1): Conv2d(\n","            1024, 512, kernel_size=(1, 1), stride=(2, 2), bias=False\n","            (norm): FrozenBatchNorm2d(num_features=512, eps=1e-05)\n","          )\n","          (conv2): Conv2d(\n","            512, 512, kernel_size=(3, 3), stride=(1, 1), padding=(1, 1), bias=False\n","            (norm): FrozenBatchNorm2d(num_features=512, eps=1e-05)\n","          )\n","          (conv3): Conv2d(\n","            512, 2048, kernel_size=(1, 1), stride=(1, 1), bias=False\n","            (norm): FrozenBatchNorm2d(num_features=2048, eps=1e-05)\n","          )\n","        )\n","        (1): BottleneckBlock(\n","          (conv1): Conv2d(\n","            2048, 512, kernel_size=(1, 1), stride=(1, 1), bias=False\n","            (norm): FrozenBatchNorm2d(num_features=512, eps=1e-05)\n","          )\n","          (conv2): Conv2d(\n","            512, 512, kernel_size=(3, 3), stride=(1, 1), padding=(1, 1), bias=False\n","            (norm): FrozenBatchNorm2d(num_features=512, eps=1e-05)\n","          )\n","          (conv3): Conv2d(\n","            512, 2048, kernel_size=(1, 1), stride=(1, 1), bias=False\n","            (norm): FrozenBatchNorm2d(num_features=2048, eps=1e-05)\n","          )\n","        )\n","        (2): BottleneckBlock(\n","          (conv1): Conv2d(\n","            2048, 512, kernel_size=(1, 1), stride=(1, 1), bias=False\n","            (norm): FrozenBatchNorm2d(num_features=512, eps=1e-05)\n","          )\n","          (conv2): Conv2d(\n","            512, 512, kernel_size=(3, 3), stride=(1, 1), padding=(1, 1), bias=False\n","            (norm): FrozenBatchNorm2d(num_features=512, eps=1e-05)\n","          )\n","          (conv3): Conv2d(\n","            512, 2048, kernel_size=(1, 1), stride=(1, 1), bias=False\n","            (norm): FrozenBatchNorm2d(num_features=2048, eps=1e-05)\n","          )\n","        )\n","      )\n","    )\n","  )\n","  (proposal_generator): RPN(\n","    (rpn_head): StandardRPNHead(\n","      (conv): Conv2d(\n","        256, 256, kernel_size=(3, 3), stride=(1, 1), padding=(1, 1)\n","        (activation): ReLU()\n","      )\n","      (objectness_logits): Conv2d(256, 3, kernel_size=(1, 1), stride=(1, 1))\n","      (anchor_deltas): Conv2d(256, 12, kernel_size=(1, 1), stride=(1, 1))\n","    )\n","    (anchor_generator): DefaultAnchorGenerator(\n","      (cell_anchors): BufferList()\n","    )\n","  )\n","  (roi_heads): StandardROIHeads(\n","    (box_pooler): ROIPooler(\n","      (level_poolers): ModuleList(\n","        (0): ROIAlign(output_size=(7, 7), spatial_scale=0.25, sampling_ratio=0, aligned=True)\n","        (1): ROIAlign(output_size=(7, 7), spatial_scale=0.125, sampling_ratio=0, aligned=True)\n","        (2): ROIAlign(output_size=(7, 7), spatial_scale=0.0625, sampling_ratio=0, aligned=True)\n","        (3): ROIAlign(output_size=(7, 7), spatial_scale=0.03125, sampling_ratio=0, aligned=True)\n","      )\n","    )\n","    (box_head): FastRCNNConvFCHead(\n","      (flatten): Flatten(start_dim=1, end_dim=-1)\n","      (fc1): Linear(in_features=12544, out_features=1024, bias=True)\n","      (fc_relu1): ReLU()\n","      (fc2): Linear(in_features=1024, out_features=1024, bias=True)\n","      (fc_relu2): ReLU()\n","    )\n","    (box_predictor): FastRCNNOutputLayers(\n","      (cls_score): Linear(in_features=1024, out_features=2, bias=True)\n","      (bbox_pred): Linear(in_features=1024, out_features=4, bias=True)\n","    )\n","    (mask_pooler): ROIPooler(\n","      (level_poolers): ModuleList(\n","        (0): ROIAlign(output_size=(14, 14), spatial_scale=0.25, sampling_ratio=0, aligned=True)\n","        (1): ROIAlign(output_size=(14, 14), spatial_scale=0.125, sampling_ratio=0, aligned=True)\n","        (2): ROIAlign(output_size=(14, 14), spatial_scale=0.0625, sampling_ratio=0, aligned=True)\n","        (3): ROIAlign(output_size=(14, 14), spatial_scale=0.03125, sampling_ratio=0, aligned=True)\n","      )\n","    )\n","    (mask_head): MaskRCNNConvUpsampleHead(\n","      (mask_fcn1): Conv2d(\n","        256, 256, kernel_size=(3, 3), stride=(1, 1), padding=(1, 1)\n","        (activation): ReLU()\n","      )\n","      (mask_fcn2): Conv2d(\n","        256, 256, kernel_size=(3, 3), stride=(1, 1), padding=(1, 1)\n","        (activation): ReLU()\n","      )\n","      (mask_fcn3): Conv2d(\n","        256, 256, kernel_size=(3, 3), stride=(1, 1), padding=(1, 1)\n","        (activation): ReLU()\n","      )\n","      (mask_fcn4): Conv2d(\n","        256, 256, kernel_size=(3, 3), stride=(1, 1), padding=(1, 1)\n","        (activation): ReLU()\n","      )\n","      (deconv): ConvTranspose2d(256, 256, kernel_size=(2, 2), stride=(2, 2))\n","      (deconv_relu): ReLU()\n","      (predictor): Conv2d(256, 1, kernel_size=(1, 1), stride=(1, 1))\n","    )\n","  )\n",")\n","[06/28 18:47:21 d2.data.datasets.coco]: Loaded 145 images in COCO format from /content/drive/MyDrive/Final IDCC-SAM/Rebuttal/IDCIA/Mask RCNN/COCO_dataset/train/coco_annotations.json\n","[06/28 18:47:22 d2.data.build]: Removed 11 images with no usable annotations. 134 images left.\n","[06/28 18:47:22 d2.data.build]: Distribution
…
